Deep Learning and Signal Processing/Final Project/checkpoints/checkpoint_convtasnet.pt (torch, 611180 bytes, 89 tensors)

encoder.weight f4 [512, 1, 16]
000000 6e d0 d7 bd 04 dc dd 3d 45 d3 c1 3d 70 6f cf bc
       -0.10537802 0.1083298 0.094641246 -0.025321692
000010 ad 89 85 3e b0 37 a2 be 75 82 aa 3d 8c 19 c4 bb
       0.260816 -0.3168311 0.08325664 -0.0059844907
000020 50 38 73 3e 25 09 80 bd 14 47 45 3d c6 09 32 be
       0.2375195 -0.06251744 0.04816349 -0.17386541
000030 fd 99 d8 3d 66 f3 f8 3d 6c 19 2f 3e f7 e1 b9 bd
       0.10576246 0.121557996 0.17099541 -0.090763025
000040 ae 22 8f bd ab d6 f8 bd 1e f5 12 3e 8c bb 35 3d
       -0.069890365 -0.1215032 0.14351317 0.04436831
000050 e8 8f 77 3d 32 e9 ae bc 76 79 b7 bb 95 d3 6a 3d
       0.060439974 -0.02135143 -0.005599196 0.057330687
000060 fe 0f 4c 3e a6 36 56 bd fb 33 21 be 87 8e b0 3e
       0.19927976 -0.05229821 -0.15742485 0.3448374
000070 c4 e4 3f 3e 0c 9e 4f 3e f1 9b ec 3a 6b 17 b0 bc
       0.18739611 0.20275134 0.0018051845 -0.021495542
000080 61 c1 9f 3e 0d ee 65 bd e6 c4 02 be f1 cb 8f 3e
       0.31202224 -0.056135226 -0.12770423 0.28085282
000090 99 7f ac 3e 1b c4 82 bc 24 22 b8 3d 59 ee 45 bd
       0.336911 -0.015962651 0.08990887 -0.04832301
0000a0 af 74 aa 3d 66 83 03 3e 76 d6 28 3e 19 35 62 bb
       0.08323037 0.12843093 0.1648806 -0.0034516512
0000b0 90 3d 08 3e 36 9c 16 3d 3c ab 45 be fb 21 16 be
       0.13304734 0.036770068 -0.19303602 -0.146614
0000c0 34 23 b7 3e 1f b8 82 be 1b ef 2b 3e cc ec 1a be
       0.35769045 -0.25531098 0.1679043 -0.15129393
0000d0 82 6f b2 3d 7c 99 de bd a0 34 ab 3c 30 21 32 3d
       0.08712675 -0.108691186 0.020899117 0.04348868
0000e0 bb 72 3e 3e 61 2f 43 3d c6 46 18 bd af 2e d2 3d
       0.18598454 0.047652606 -0.03717687 0.102628104
0000f0 03 dc 12 be a6 d3 01 3e 6c b5 71 3e 07 97 e3 3d
       -0.1434174 0.12678394 0.23604363 0.111127906
000100 4b f2 e6 3c af 33 a5 be 86 a1 fb 3d ca da 86 3e
       0.028191706 -0.32265994 0.122866675 0.26338798
000110 1f cc 8f be 5f 57 9c bc 7d 9c f9 bd 64 ec aa bd
       -0.2808542 -0.01908463 -0.12188051 -0.08345869
000120 67 d3 b2 bd f6 2b 41 be da 13 46 3e 64 65 89 3d
       -0.08731728 -0.18864426 0.1934351 0.06708792
000130 c1 ef 28 3d 93 66 4c bd 98 1d 14 bd 1c be 81 3d
       0.041244272 -0.04990251 -0.036161035 0.063350886
000140 54 2e d6 3d e5 7c e3 bd b6 b6 d8 3d f3 33 b0 bd
       0.10458055 -0.11107806 0.10581724 -0.086036585
000150 0d c7 de bd a9 71 c1 3d ac a1 cf bd f2 6e 35 be
       -0.1087781 0.09445507 -0.10138258 -0.17718104
000160 47 f9 a4 3e a1 30 bf be db 25 f9 3e cb cc 82 be
       0.32221434 -0.37341788 0.48661694 -0.2554687
000170 54 64 6e 3e 06 12 0c 3c 42 eb 1e bd b9 f0 18 3e
       0.2328046 0.008549219 -0.038798578 0.14935578
000180 f0 7f c7 bd 94 bb 8a 3e f0 3b a6 be f6 0f 6d bd
       -0.09741199 0.27096236 -0.32467604 -0.05787655
000190 64 ac 36 bd b1 66 1e be 9f 30 fe 3c 3a 80 2c 3d
       -0.044598 -0.15468861 0.031029044 0.042114474
0001a0 07 02 8d 3e f8 da 21 bc 1d e2 52 be 3b 41 a1 3d
       0.2754061 -0.009878866 -0.20594068 0.0787377
0001b0 11 ca 66 be 82 c2 6f 3e 91 10 cd 3d 74 10 89 be
       -0.2253802 0.23414043 0.100129254 -0.26770365
0001c0 3f 1e 8d be 04 c2 27 3e 28 b9 18 3e 79 52 80 bb
       -0.27562138 0.16382605 0.14914382 -0.0039160815
0001d0 aa ac 7a be a5 ea 83 bd c4 30 bd 3e 8b 2b 37 3e
       -0.24479929 -0.06441239 0.36951268 0.17887704
0001e0 5b 7b 66 be 39 43 bb be 3a 39 1b be e6 e5 a5 3e
       -0.22507994 -0.36574724 -0.15158549 0.3240196
0001f0 2a 5d dc bb a0 32 50 3e b3 f3 4d be 3a a3 4e 3e
       -0.006724973 0.20331812 -0.20112495 0.20179453
000200 6d b4 3d bd b1 ed 52 3e 76 43 b0 3d 3f 08 60 3e
       -0.046314646 0.20598485 0.08606617 0.21878146
000210 df b7 01 3e 52 c0 b0 bd 1b 45 d5 3d 2c 79 73 3e
       0.12667798 -0.08630432 0.104135714 0.23776692
000220 16 f7 03 3e 52 da 23 bd 80 10 9f bd cd df f1 3d
       0.12887225 -0.04000313 -0.07766819 0.11810265
000230 af 7a 7a be 0c 9a b0 3c f8 ac dc 3b 44 eb 1f be
       -0.24460863 0.02155783 0.0067344867 -0.1561709
000240 a4 41 7e 3e 49 e0 38 3e af 02 5e be a2 ce 67 3d
       0.24829727 0.18054308 -0.21680711 0.056593545
000250 69 a5 04 be d5 64 27 bd 94 72 6a be 31 97 61 be
       -0.12953724 -0.040867645 -0.2289527 -0.22030331
000260 7f ea 0c be 5b 2b 92 3e 94 e4 3a 3f 81 58 58 3e
       -0.13761328 0.28548703 0.7300503 0.21127512
000270 fe 85 99 bc 23 cb 02 bf af ca f5 be 01 5e 62 3e
       -0.01874065 -0.5109121 -0.48006198 0.22106172
000280 b6 63 27 3e dd 2c 02 be 30 24 1f 3e e5 18 8c 3d
       0.1634663 -0.12712426 0.15541148 0.06840686
000290 64 3a 5e 3d 56 7f 5e 3d 89 74 45 bd 7e 3d e5 bd
       0.054254904 0.054320656 -0.04820684 -0.11193369
0002a0 fe e8 5c be 31 62 38 bd ab 00 46 be e7 e0 8d be
       -0.21573254 -0.045015518 -0.19336192 -0.2771065
0002b0 e9 24 f3 bd 33 94 be bc d4 e2 3d be 1a 68 c9 3d
       -0.118722744 -0.023264026 -0.1854356 0.09834309
0002c0 26 5b 06 3e f5 90 85 3e 98 ac 60 3e 2b 19 55 be
       0.13120708 0.26087156 0.2194084 -0.20810382
0002d0 c4 07 2d be 86 f4 f4 3d 5e a1 09 3d f6 ad 8a be
       -0.16897494 0.11960702 0.033601157 -0.27085847
0002e0 7e 37 8b be 14 0b 04 3e 36 15 92 3e d7 d1 04 3d
       -0.27190775 0.12894851 0.28531808 0.03242668
0002f0 27 0a 80 be 1c a4 92 bd 90 71 11 3e 65 cc 44 3d
       -0.25007746 -0.07160208 0.14203477 0.04804649
000300 84 b4 3d 3d ce 03 61 3e ed b8 ca 3d dd 21 4e 3d
       0.04631473 0.21974108 0.09898553 0.050325263
000310 a4 64 f2 bd 16 fa 72 bd 9f 1f 66 3e 04 69 47 3b
       -0.11835602 -0.05932053 0.22473 0.0030427584
000320 04 55 f0 3d a4 45 90 3c e2 6e 89 bd b9 57 f9 bd
       0.117349654 0.017611332 -0.06710602 -0.12174935
000330 45 e5 0d be 97 cd f2 bd de 99 fb 3d f4 2f 17 39
       -0.1385699 -0.118556194 0.12285207 0.00014418346
000340 97 ef b7 3d b7 6f fc bc 3c 4b 80 3d 41 50 14 3c
       0.08981245 -0.030814989 0.0626435 0.009052337
000350 b3 83 98 3d fb a7 f6 3c 71 73 ac 3d c1 0e 60 be
       0.07446995 0.030109396 0.08420456 -0.21880628
000360 8a ed 8b 3d a8 73 ae 3e 8a 77 a4 be 13 b0 0c 3c
       0.06832416 0.34072614 -0.3212245 0.008586901
000370 ca 78 06 3e 92 5a 5e 3e 46 5a 53 be 3b 9f b7 be
       0.13132015 0.21714237 -0.20639905 -0.3586367
000380 ea 95 3b 3d 04 f9 56 3e 6f d6 83 3d c0 b1 39 bc
       0.045797266 0.2099343 0.06437384 -0.011333883
000390 f6 4c 42 3d 1c 9a 59 be 47 27 9c bd 37 48 44 be
       0.047436677 -0.21250194 -0.07624679 -0.19168173
0003a0 98 54 6a be 08 f2 ba 3c b3 66 79 3e 88 53 c1 bd
       -0.22883832 0.022820488 0.24355583 -0.094397604
0003b0 74 66 c0 bc 92 89 1d be c3 a4 97 3e 4d 73 c9 3d
       -0.023486353 -0.1538451 0.2961789 0.09836445
0003c0 69 26 56 be f0 be 1c be 3f 6c 92 be 81 7b fd bd
       -0.2091309 -0.15307212 -0.2859821 -0.12377072
0003d0 df 46 56 3d b1 39 ca be 27 cf d0 be aa 3a 10 3e
       0.05231368 -0.3949714 -0.40783045 0.14084879
0003e0 f1 90 67 bd 8d 94 54 3e 2c 46 0d 3e 1f 58 c5 bd
       -0.05653471 0.20759793 0.137963 -0.096359484
0003f0 58 ca a4 3e 06 00 a3 bd 30 3f 23 be 32 a0 9b 3d
       0.32185626 -0.07958989 -0.15942073 0.07598914

encoder.bias f4 [512]
000000 33 b8 58 3d 55 30 12 be b1 36 01 3e 0e a2 98 3d
       0.05291004 -0.1427625 0.1261852 0.074527845
000010 ee d0 2e be 8f 9d 8e 3b 27 a1 ae 3c 8b 98 5b bb
       -0.17071888 0.0043522785 0.021317078 -0.003350767
000020 63 e3 a2 be eb 00 c9 bc 27 6a 90 3d 21 68 46 3e
       -0.31814107 -0.02453657 0.07051497 0.1937566
000030 c3 ff b4 3d a9 5c c0 ba 5f bb b8 bd 02 e9 31 3d
       0.08837845 -0.0014676052 -0.09020113 0.043435104
000040 8c 2e ed 3c 69 a8 82 3b d0 41 08 3e a7 17 81 bd
       0.02895286 0.003987361 0.13306355 -0.063033395
000050 d4 7a 52 3d 0a e7 b0 bd 3f 29 7c 3c 46 5a 55 be
       0.05138667 -0.08637817 0.015390693 -0.20835218
000060 80 bf 0c be ca 04 2b bd c2 c9 81 bd 47 e6 3a 3a
       -0.13744926 -0.041752614 -0.063373104 0.0007129651
000070 64 97 98 bd 8f 20 94 bc 17 da 82 3d b1 e2 d8 3c
       -0.074507505 -0.018081931 0.063892536 0.026475282
000080 fc 84 e7 bd 71 bd c3 3d f2 9b a6 bb be dd 27 3e
       -0.11304662 0.095576175 -0.005084508 0.16393182
000090 cd f2 1b bd c2 e2 8b 3c 1e 0a 90 bc e5 20 02 3d
       -0.03807335 0.0170759 -0.01758295 0.031769652
0000a0 d6 eb 07 bd a6 4e 46 3d fe 4a b3 bb 1c a9 4d bd
       -0.033183895 0.04841485 -0.0054715862 -0.050210103
0000b0 dc 86 44 3d ab fb 87 bc 0d 5e a5 bc e5 38 5d 3d
       0.047980174 -0.016599497 -0.020186448 0.054009337
0000c0 fe f6 f7 3b ec 3c 98 bd be e6 ef 39 68 8f 10 be
       0.0075672856 -0.07433495 0.0004575755 -0.14117205
0000d0 ba b2 ec bd 02 04 4e 3d 4e 7f 6d be f2 8a d0 bb
       -0.11557527 0.05029679 -0.23193094 -0.00636422
0000e0 9a 2b 62 bc 70 68 a6 bd 5a da 5a 3e 07 8d 11 3e
       -0.013804341 -0.081253886 0.21372357 0.14213954
0000f0 cf 7d 17 bc 3f 86 15 3e 1d aa 24 bd 30 dc 14 be
       -0.009246304 0.14601992 -0.040201295 -0.1453712
000100 ad ac e7 bd 7b 6e b4 be 42 7e 2a be a5 4c 00 3c
       -0.11312232 -0.3524054 -0.16649726 0.0078307735
000110 d4 e3 23 be d4 7b 98 3d c6 24 1f be a9 d5 92 bc
       -0.16004878 0.07445493 -0.15541372 -0.017924147
000120 c6 a4 cb 3b d1 4c 43 bd 1b 2d ee 3c 2d bb d2 3d
       0.006214711 -0.04768068 0.029074242 0.10289607
000130 b9 71 38 bd ec 63 06 3e 38 9f 11 3c e7 d3 25 3d
       -0.04503033 0.13124055 0.008888058 0.04048529
000140 99 4a e4 3c 88 1b ae 3d 1f 76 11 be e3 32 cc 3b
       0.027867602 0.08501345 -0.14205216 0.006231652
000150 e0 41 85 3e a4 bc 4e ba 66 96 0b 3d 43 5f c9 bd
       0.2602682 -0.0007886386 0.034078978 -0.09832623
000160 9d 56 74 be ac 2b 46 be 79 e3 fd 3c 45 af a0 3d
       -0.23861165 -0.19352597 0.030992256 0.0784593
000170 b7 22 4a 3e c7 21 77 ba a9 4e 3c 3d f0 3e 92 bc
       0.19739805 -0.00094273355 0.045973454 -0.017852277
000180 ff fa 6f be 1f ae 5f 3e 78 c2 e8 3b 02 41 2f bd
       -0.23435591 0.21843766 0.0071032606 -0.042786606
000190 84 f0 72 3b 8a 35 09 3e 91 fb 5f 3d d8 db 99 3c
       0.0037069628 0.1339933 0.05468327 0.018781587
0001a0 7e e1 ca bc 47 90 47 3d 51 71 c4 bd a4 1a fc bd
       -0.024765726 0.048721578 -0.09591926 -0.12309769
0001b0 14 96 75 be 76 7c 1e be de 9c 89 bc e0 10 6e bd
       -0.23983032 -0.15477166 -0.016798433 -0.058121562
0001c0 d3 60 dd bd 2a 09 db 3d 91 39 e9 3c a4 3c 83 3b
       -0.108094834 0.10695107 0.028469833 0.0040050317
0001d0 84 27 67 3d 60 48 ee 3c 6e db 21 3d bd 6c 04 bd
       0.05643417 0.029087245 0.039515905 -0.032330263
0001e0 41 a4 5e be 3f f5 9b bd c0 61 72 3e 52 41 86 3e
       -0.21742345 -0.07615136 0.23670101 0.2622171
0001f0 ff be 25 3e b7 45 6a 3e 02 13 f9 bd f1 97 a3 ba
       0.1618614 0.22878157 -0.121618286 -0.0012481195
000200 50 bf 0e 3d 09 fc 7c be 0a e4 f9 bc 83 aa b3 bc
       0.03485042 -0.24705519 -0.030504245 -0.021931892
000210 6b 4c 14 3e ed 11 f1 bd e2 7a e8 ba 54 4a 46 3d
       0.14482276 -0.11770997 -0.0017736817 0.04841073
000220 52 8b 24 bc 2f f1 1d be e9 c2 4b 3d 05 56 95 3e
       -0.010042982 -0.15424035 0.049746428 0.2916719
000230 f2 a5 1b be 9c c6 32 3c 28 c2 f5 3c 7d 6b 3e 3e
       -0.15200022 0.01091161 0.029999807 0.18595691
000240 0d 34 99 3e b2 84 80 3e dd 65 bf bb e1 2b af 3a
       0.29922524 0.25101238 -0.0058410005 0.0013364517
000250 21 5c ba bc 39 ff 22 3e 05 33 56 bd 23 d5 4c bc
       -0.022749009 0.15917672 -0.05229475 -0.012501988
000260 f1 db 03 be c3 b9 e2 3d 4f 88 ce bb b5 41 02 be
       -0.1287687 0.110705875 -0.0063028703 -0.12720378
000270 1c b1 85 3e a2 d9 e0 bd 05 94 2d 3e ef a1 b0 3a
       0.26111686 -0.1097901 0.16950996 0.0013475994
000280 d9 28 19 be 7b bc 38 3e 0f 95 98 3d 3c 56 57 3c
       -0.14956988 0.1804065 0.07450306 0.0131431185
000290 27 e7 f0 3c 1e 08 11 3c 8b 8a 12 bc 11 0b f7 bd
       0.029407097 0.008852033 -0.008944164 -0.120626576
0002a0 be 33 07 be 79 bc f9 bd f5 3e 57 3e 11 e8 87 be
       -0.13203332 -0.121941514 0.2102011 -0.2654424
0002b0 d6 e3 84 ba 55 53 bb bd f2 0d 47 3e c7 57 5a bd
       -0.0010138701 -0.09146754 0.19438913 -0.053306367
0002c0 63 67 46 3b cb 64 b4 bc 2b f2 d3 3b a4 ac fa 3d
       0.0030274026 -0.022020718 0.0064680777 0.1223996
0002d0 3d 59 ce bb f3 b6 8f 3e f4 fe 84 3d 30 7c 2d be
       -0.006297259 0.28069267 0.06493941 -0.16941905
0002e0 89 65 ed bd 83 98 77 3e 9d b8 d5 3d 70 08 58 be
       -0.11591632 0.24179272 0.10435603 -0.21096969
0002f0 0e ca 61 3d 01 4b 9c bd 74 df 3e 3d 11 a7 54 bd
       0.055124335 -0.07631493 0.04659982 -0.05191714
000300 52 22 3f bd e8 b7 44 be 68 4b e9 3d 1a d2 02 be
       -0.04666359 -0.1921078 0.11391336 -0.1277546
000310 f4 d8 5a bd 4d 74 01 3e 24 37 10 bc d9 dc 20 be
       -0.05342956 0.12642021 -0.008802209 -0.15709247
000320 26 5a 01 be 6c dd 1b 3e 0d 8e 99 be 13 90 ff bc
       -0.12632045 0.15221184 -0.2999119 -0.03119663
000330 0f 29 a4 bd 76 10 9b 3d 22 3c 76 3e be 54 b2 bc
       -0.08015644 0.07571499 0.24046376 -0.021768924
000340 e3 52 68 bd 8c 39 f2 3d 91 84 cb bc 3f 1b 80 bd
       -0.056719672 0.118273824 -0.024843486 -0.06255197
000350 5c a1 5b 3e ef f3 99 bd d5 20 68 bc 8f 81 05 be
       0.21448272 -0.0751723 -0.014167984 -0.13037704
000360 72 48 af 3c ec 58 0f b9 fa c5 28 bd ba 73 7e bd
       0.02139685 -0.00013670669 -0.04120443 -0.062122084
000370 62 ac 19 bb 29 29 7a bc e7 45 bd bc a5 15 5b 3e
       -0.0023448695 -0.015268602 -0.023104621 0.21394975
000380 95 c5 f5 3b ac f1 72 be e0 0c 2e bd b7 0f 0b 3e
       0.0075003603 -0.23725003 -0.042492747 0.13580213
000390 fc 36 03 3e 24 5e cb bd 59 f6 9a bc 46 46 49 3c
       0.12813944 -0.09930065 -0.018916296 0.012284821
0003a0 6a b4 3d be 2a ce 3a be c5 f1 83 3e 40 b0 36 be
       -0.18525854 -0.18242708 0.25770393 -0.17840672
0003b0 2b d2 1a bd 68 59 8f bc 7c 75 89 3d f8 5e a7 3d
       -0.037798088 -0.017498687 0.067118615 0.08172411
0003c0 91 c1 1a 3c 6e 65 be 3c 9f 32 62 be 81 76 3f bc
       0.009445564 0.023241725 -0.22089623 -0.011685968
0003d0 da 4b 43 bd fd b1 ae bc 9a 36 2e 3e 3d 84 20 3e
       -0.04767976 -0.021325106 0.17013016 0.15675445
0003e0 a2 d7 6e 3c e3 59 5a bc 87 b2 ec bd 02 95 a6 bd
       0.014577778 -0.013327095 -0.11557489 -0.0813389
0003f0 62 e9 7b 3e 48 07 4f 3e db c3 60 bc 10 b4 4c 3c
       0.24600747 0.20217621 -0.013718571 0.012494102

LayerN_S.weight f4 [512]
000000 c1 ab 53 3f 82 00 41 3f d2 53 5e 3f 69 5b 3f 3f
       0.8268395 0.753914 0.8684665 0.74748856
000010 88 a9 24 3f ac 27 81 3f 68 aa 6e 3f 23 9b 96 3f
       0.64321184 1.0090232 0.9322877 1.1766094
000020 62 54 36 3f aa af 5b 3f 68 dd 5f 3f dd 12 1e 3f
       0.7122251 0.8581492 0.87447214 0.61747533
000030 c6 10 43 3f e7 2c 7b 3f c0 b0 42 3f d9 a0 7b 3f
       0.7619747 0.9811539 0.7605095 0.9829231
000040 43 e9 67 3f 22 de 6d 3f c8 c0 23 3f bf f9 51 3f
       0.90590304 0.9291707 0.63966036 0.8202171
000050 2a d8 59 3f 55 cf 61 3f 06 c0 62 3f 1f a3 1c 3f
       0.85095465 0.8820699 0.88574255 0.61186403
000060 92 9a 31 3f b2 17 72 3f 92 5d 5c 3f 48 67 82 3f
       0.6937648 0.94567406 0.86080277 1.0187769
000070 37 00 5a 3f 8d 86 80 3f eb ce 3d 3f bf 29 7a 3f
       0.8515658 1.0041062 0.74143857 0.9771995
000080 38 e3 3b 3f e3 90 32 3f e9 3c 83 3f 3f 29 21 3f
       0.73393583 0.6975233 1.0252963 0.6295356
000090 a7 12 5b 3f a8 ae 8a 3f 2c 99 71 3f 2b f9 58 3f
       0.85575336 1.0834551 0.94374347 0.847552
0000a0 bd 70 6c 3f 5f 79 57 3f 75 e1 6b 3f 73 6b 55 3f
       0.92359525 0.8416957 0.92140895 0.8336708
0000b0 c8 b3 7a 3f 6d b2 7f 3f 19 35 61 3f ea aa 56 3f
       0.97930574 0.9988163 0.87971646 0.83854544
0000c0 5d da 88 3f 00 d0 3a 3f cc 44 c2 3f 91 5c 25 3f
       1.0691639 0.7297363 1.5177245 0.6459437
0000d0 82 e5 34 3f 52 4e 4b 3f 74 44 31 3f 09 a3 94 3f
       0.706627 0.7941638 0.69245076 1.1612254
0000e0 7a dd 70 3f 9d a5 56 3f 5a 1d 45 3f fb 38 3a 3f
       0.94087946 0.83846456 0.7699791 0.72743195
0000f0 2c bc 6e 3f 01 da 26 3f c7 fa 63 3f a5 fd 2d 3f
       0.9325588 0.651764 0.8905453 0.67965156
000100 7e 13 61 3f ff 48 10 3f 3b 5f 40 3f 81 61 70 3f
       0.8792037 0.56361383 0.7514531 0.9389878
000110 52 95 2c 3f c9 31 4e 3f 58 7e 3d 3f 4a c1 6d 3f
       0.67415345 0.80544716 0.7402091 0.9287306
000120 83 cc 7b 3f 4c 0b 47 3f 74 df 60 3f 45 f7 38 3f
       0.98358935 0.7775161 0.8784096 0.72252303
000130 af 02 5c 3f a9 35 3a 3f 78 c5 8a 3f b7 90 50 3f
       0.85941595 0.7273813 1.0841513 0.8147082
000140 86 d6 7d 3f e4 d6 44 3f f1 6c 1e 3f 42 35 b7 3f
       0.9915546 0.768904 0.6188498 1.4313128
000150 e9 5a 22 3f be 8a 9d 3f 94 fb 68 3f 36 5a 42 3f
       0.6341997 1.2307966 0.9100888 0.759189
000160 7c 7c 0f 3f e8 9c 25 3f d6 ff 74 3f 74 a8 63 3f
       0.56049323 0.64692545 0.95702875 0.88928914
000170 eb 80 11 3f f3 82 be 3f a8 90 4b 3f 44 44 85 3f
       0.5683734 1.4883713 0.795176 1.0411458
000180 d7 ee 2a 3f 26 e6 3b 3f 1c 25 8d 3f b4 ec 49 3f
       0.6677069 0.73398054 1.102695 0.78876805
000190 20 13 8c 3f ad 00 55 3f 1c 6f 69 3f 95 83 77 3f
       1.0943336 0.83204156 0.91185164 0.96685153
0001a0 14 d3 5d 3f d8 d4 5b 3f 53 c7 5d 3f b5 9c 3c 3f
       0.86650205 0.8587165 0.8663227 0.73676616
0001b0 3b bf 21 3f a8 d3 5b 3f fc 67 75 3f f8 4d 69 3f
       0.6318242 0.85869837 0.9586179 0.91134596
0001c0 8c e0 74 3f ba 0d 3e 3f f5 bf 63 3f c5 40 8a 3f
       0.9565513 0.74239695 0.8896478 1.0801016
0001d0 47 eb 6c 3f 91 1a 58 3f c4 ac 55 3f ce 2b 5c 3f
       0.92546505 0.8441554 0.83466744 0.8600434
0001e0 88 54 4c 3f 48 dd 43 3f 0b 1c 20 3f c8 e4 36 3f
       0.79816484 0.76509523 0.6254279 0.7144284
0001f0 ee db 30 3f bb c4 14 3f d3 1e 53 3f aa 41 a2 3f
       0.69085586 0.58112687 0.8246891 1.2676289
000200 24 bb 59 3f 86 6e 2b 3f 5d 9f 4d 3f 42 e2 88 3f
       0.8505118 0.6696552 0.80321294 1.0694048
000210 dd 9a 21 3f 2a b7 2f 3f ca f7 81 3f d9 e0 51 3f
       0.6312693 0.6863886 1.0153744 0.81983715
000220 4e 0f 82 3f 10 8f 4f 3f ae 14 4e 3f f2 c9 23 3f
       1.0160921 0.8107767 0.80500305 0.6398002
000230 43 06 3d 3f eb 1e 5c 3f 87 92 62 3f 33 5e 3c 3f
       0.7383768 0.8598468 0.88504833 0.73581237
000240 dc 55 0a 3f 8b 1f 37 3f c9 1e ae 3f b3 0a 73 3f
       0.5403726 0.71532506 1.3603145 0.949382
000250 46 89 61 3f 18 98 17 3f 69 ec 57 3f ba e6 71 3f
       0.8810009 0.5921645 0.8434511 0.94492686
000260 41 cd 31 3f 36 fa 35 3f a4 bc 7e 3f 25 ff 36 3f
       0.6945382 0.71084917 0.9950659 0.7148307
000270 0a 23 28 3f 4a 97 3d 3f 29 00 2f 3f da 87 8e 3f
       0.65678465 0.74058974 0.6835962 1.1135209
000280 84 85 4e 3f 7f 00 41 3f bd 62 4d 3f c5 ee 7a 3f
       0.8067248 0.7539138 0.8022879 0.98020583
000290 8e f4 53 3f 41 7d 8c 3f 7c 8c 81 3f a9 d4 2c 3f
       0.82795036 1.0975724 1.0120997 0.67511994
0002a0 6b de 42 3f 1a c1 3a 3f 80 2c 29 3f e3 0f 2f 3f
       0.7612063 0.729509 0.66083527 0.68383616
0002b0 56 c1 74 3f b1 c3 3c 3f 0a 64 1d 3f 3c cb 59 3f
       0.9560751 0.737361 0.6148077 0.85075736
0002c0 f4 3e 84 3f ff ba 62 3f 9f 84 7b 3f d8 e2 36 3f
       1.0331712 0.88566583 0.9824924 0.71439886
0002d0 0a 32 91 3f d2 05 10 3f 95 de 74 3f 9f 4b 60 3f
       1.1343396 0.5625888 0.95652133 0.8761539
0002e0 81 b0 48 3f 0f 9d 37 3f 54 03 38 3f c1 66 1c 3f
       0.78394324 0.7172403 0.7188008 0.6109429
0002f0 ee 4a 69 3f 71 8d 4f 3f 2f 8a 66 3f 00 09 5e 3f
       0.9112996 0.810752 0.900546 0.8673248
000300 62 b1 4d 3f 85 65 41 3f 63 b1 62 3f 26 95 3c 3f
       0.8034879 0.7554553 0.8855192 0.7366508
000310 09 be 53 3f fe b2 4a 3f 3c 42 7a 3f e7 fb 22 3f
       0.82711846 0.7917937 0.97757316 0.6366562
000320 32 44 44 3f f6 f2 23 3f 31 cb 2b 3f b9 5a 76 3f
       0.7666656 0.64042604 0.6710692 0.9623218
000330 85 e7 7a 3f 30 2b 64 3f 52 ac 1e 3f f3 ef 84 3f
       0.9800952 0.891284 0.6198169 1.0385727
000340 16 0c 53 3f 5e 2d 57 3f 69 91 61 3f 3f 36 4f 3f
       0.82440317 0.840536 0.88112503 0.8094215
000350 24 8e 45 3f 14 54 5b 3f 52 c7 61 3f 32 76 2c 3f
       0.77170014 0.8567517 0.88194764 0.6736785
000360 3c e6 76 3f 00 dd 8b 3f 55 11 4a 3f e7 6f 52 3f
       0.9644506 1.0926819 0.78932697 0.82202
000370 e6 d9 8a 3f b8 02 7e 3f ed 66 66 3f 93 42 1c 3f
       1.0847747 0.992229 0.900008 0.61039084
000380 11 c0 88 3f eb 20 23 3f ff 3b 6b 3f 85 e3 5a 3f
       1.0683614 0.63722104 0.9188842 0.8550342
000390 a5 ba 35 3f 0c 1b 2c 3f e2 37 80 3f f4 a9 5b 3f
       0.7098792 0.6722877 1.0017054 0.858062
0003a0 2c 4d 2f 3f 16 b2 41 3f 0d 7d 09 3f f4 97 42 3f
       0.6847713 0.7566236 0.5370644 0.7601311
0003b0 eb a5 85 3f 6b 01 75 3f 39 6a 3f 3f bf 6e 34 3f
       1.0441259 0.9570529 0.7477146 0.70481485
0003c0 b7 38 78 3f bd f0 75 3f 6d 9e 1d 3f 05 64 67 3f
       0.9696154 0.9607046 0.61569864 0.9038699
0003d0 85 9a 65 3f dc 67 62 3f 35 55 33 3f c7 7c 3a 3f
       0.89688903 0.88439727 0.7005189 0.72846645
0003e0 66 ea 68 3f e5 c5 71 3f f6 9d 28 3f 2f 78 53 3f
       0.90982664 0.9444259 0.6586603 0.8260526
0003f0 c6 8b 2c 3f e9 cb 33 3f df d7 8a 3f ef d3 72 3f
       0.6740078 0.7023302 1.0847129 0.94854635

LayerN_S.bias f4 [512]
000000 e9 1e 4d be 9a 5d 99 3e 77 78 66 be 7f 38 8a be
       -0.20031323 0.29954225 -0.22506891 -0.26996228
000010 16 79 cd 3e 62 95 9d bc 1e 1d 01 be 14 8b 22 3d
       0.40131444 -0.01923627 -0.12608764 0.039683416
000020 5f b4 94 3e e9 de 5a 3e 11 20 53 be 81 43 ce be
       0.29043862 0.21374096 -0.20617701 -0.40285876
000030 1d 13 7c be b4 52 ab ba 14 df 8e 3e 14 bb e3 bd
       -0.24616666 -0.0013070912 0.2790457 -0.11119667
000040 88 21 28 be b3 b1 68 bd 2e 8b c8 be 60 5b 7f 3e
       -0.16419041 -0.056810092 -0.39168686 0.249372
000050 00 ec 68 be 46 2f 35 3e 4c 90 07 be 93 cf ce 3e
       -0.22746277 0.17693815 -0.13238639 0.40392742
000060 bf af a7 3e 7d 7b 21 3e be 25 61 3e b6 5a e1 3a
       0.3275127 0.15769763 0.21987054 0.0017193172
000070 42 22 4c 3e 0d 42 b1 3d a8 4e 94 be b6 96 76 bd
       0.19934943 0.08655176 -0.2896626 -0.060202323
000080 8d 9f 98 3e c8 48 b9 be e8 94 95 3c 2f 44 c7 be
       0.29809228 -0.3618834 0.01825948 -0.38919207
000090 d6 c3 38 3e 4c 5d b7 bd 24 94 03 3e 80 b1 41 be
       0.18043455 -0.08953342 0.1284948 -0.18915367
0000a0 a9 9c 0e 3e 1f 9d 6c be 0c a0 b0 ba f5 f4 62 3e
       0.13926949 -0.23106812 -0.0013475432 0.22163756
0000b0 90 8b df bd 72 45 9d 3d 00 6b 0c 3e 05 c7 59 be
       -0.10915291 0.07679261 0.13712692 -0.21267326
0000c0 fa a1 0b bd 5f c0 98 3e b2 98 79 bc 38 73 b1 3e
       -0.03409002 0.29834267 -0.015234159 0.34658217
0000d0 13 99 a2 3e d6 ad 70 be fb c8 9d 3e b3 c5 13 3d
       0.3175741 -0.23503813 0.30817398 0.036077213
0000e0 be 42 ad 3d 36 7a 53 3e 9a 6c 8b be c6 89 9d be
       0.08459996 0.20652089 -0.27231294 -0.30769175
0000f0 f4 59 83 3d 30 db a9 be af 02 16 3e 74 1f ac 3e
       0.064136416 -0.3317504 0.14649461 0.33617747
000100 36 ee 41 3e 48 13 e7 3e 47 b8 8e 3e cc 1a 19 3d
       0.18938527 0.45131898 0.27874967 0.03737907
000110 82 a3 a9 3e 64 79 6b be 63 72 8f 3e 3a 56 94 3d
       0.3313256 -0.22995526 0.28016958 0.07243009
000120 9d f9 41 bd 9d 8a 79 3e d5 ab 36 be 64 f3 92 be
       -0.04735719 0.24369283 -0.17838986 -0.28701317
000130 98 4f 37 3e cc 95 95 be cb e4 9c bd 31 61 56 be
       0.17901456 -0.29215848 -0.07660826 -0.20935513
000140 94 a9 10 be 1f 60 97 be af ef b7 3e b7 7b 40 bd
       -0.14127189 -0.29565522 0.35925052 -0.046992984
000150 31 0f b3 be 5e 5c f3 bb 3c 31 2e be 45 13 93 3e
       -0.34972528 -0.0074267825 -0.17010969 0.2872564
000160 f7 cc d3 3e a0 65 bc 3e f9 eb f2 bd 9c a1 54 be
       0.41367313 0.36796284 -0.118614145 -0.20764774
000170 93 98 d5 be de fa 8f 3b 61 be 54 be 96 b3 f4 3d
       -0.41717967 0.0043939194 -0.20775749 0.11948316
000180 d4 c2 b2 3e 3d 90 8f be 04 bb 98 bd 77 42 54 3e
       0.34914267 -0.28039733 -0.074575454 0.2072848
000190 60 eb 9b bc c8 bb 79 be 06 1b 24 be df f6 25 be
       -0.019033134 -0.24388039 -0.16025934 -0.16207455
0001a0 61 58 1b 3e d4 29 40 be 77 65 4d 3e 83 1e 93 3e
       0.15170433 -0.18765956 0.20058237 0.28734216
0001b0 6a da c8 3e d7 5b 48 3e d8 68 d8 3d df 83 30 3e
       0.39229137 0.19566284 0.10566872 0.17237805
0001c0 62 98 07 3e f6 1e 90 be d5 15 24 be ba a9 60 bd
       0.13241723 -0.2814862 -0.16023953 -0.054849364
0001d0 22 9f 42 be c2 03 f3 bd e6 2b 59 be 5e 29 41 3e
       -0.19006017 -0.11865951 -0.21208152 0.18863437
0001e0 2f ef 59 3e ac 77 89 3e 78 07 ac be 67 ba 9d be
       0.21282648 0.26849115 -0.33599448 -0.30806276
0001f0 db 2a aa be 47 af dd be 61 1c 87 3e eb 40 0b bd
       -0.3323582 -0.43297789 0.2638884 -0.033997457
000200 cb 4b 2f be 33 40 af 3e b2 53 31 3e 45 17 e2 3d
       -0.17118756 0.34228668 0.17317083 0.110395946
000210 a3 0d bf be ea f7 9f 3e 17 eb ef 3c 46 f4 51 be
       -0.37315091 0.3124383 0.029286904 -0.20503339
000220 e4 61 b4 3c 86 80 7c 3e 43 4e 7c be 5c 1c be be
       0.022019334 0.24658403 -0.2463923 -0.3713101
000230 84 8f 94 3e cb 9e 0b be 82 7b 2c be b0 6b 97 be
       0.29015744 -0.13634793 -0.1684399 -0.29574347
000240 56 80 e4 be 0b 98 94 be f5 c3 d1 3c 47 65 d8 bc
       -0.44629163 -0.2902225 0.025606135 -0.02641548
000250 64 58 17 3e de dd cc be 90 df 2c 3e 16 62 9e 3d
       0.14779812 -0.4001302 0.16882157 0.07733552
000260 77 97 a7 3e c2 02 9f be 52 e0 0a 3d 1f 32 8f 3e
       0.32732746 -0.31056792 0.033905335 0.27967927
000270 93 b8 bd be 0d 5a 8c 3e 0e 18 a6 be 30 99 06 bd
       -0.3705488 0.27412453 -0.32440227 -0.032860935
000280 e2 11 5c 3e f9 da 6c be c8 0c 93 be d6 c5 da bd
       0.21491197 -0.23130406 -0.2872069 -0.106822655
000290 79 1e 39 be ad 22 26 bd cb 7e d0 3d 38 fc ac 3e
       -0.1807803 -0.040560413 0.10180434 0.33786178
0002a0 60 7d 85 3e cf c7 93 3e ea ff b6 be 8b a1 ac 3e
       0.26072216 0.2886338 -0.35742122 0.33716998
0002b0 1d d3 c6 3c cc 45 98 3e e5 9b cb be 9d c1 44 3e
       0.024270589 0.2974075 -0.39767376 0.19214483
0002c0 1b ac a2 bc 10 da e1 3d a2 d9 1c bd cd 7f 97 be
       -0.019857457 0.1102792 -0.03829349 -0.29589692
0002d0 ce 02 77 3d df c3 d3 be 96 01 fb bd 54 34 4c 3e
       0.06030541 -0.41360375 -0.12256162 0.19941837
0002e0 a6 1e 97 3e 47 b6 9e be 4a 23 a1 be 13 cf c8 3e
       0.2951557 -0.30998442 -0.31472236 0.39220485
0002f0 26 76 2c be ec 51 6a 3e 82 62 26 be fa 9f 56 3e
       -0.16841945 0.22882813 -0.16248515 0.20959464
000300 99 7b 84 3e 66 cc 92 3e 11 02 4c be c7 9a 93 3e
       0.25875548 0.2867157 -0.19922663 0.28829023
000310 6c 81 80 3e c1 b6 88 be de 21 c3 3c 0b 51 b5 3e
       0.2509874 -0.2670193 0.02381986 0.35413393
000320 16 01 87 3e 19 02 ba be e1 44 aa 3e 8e e5 06 3e
       0.26368016 -0.36329725 0.33255675 0.13173506
000330 4d c2 ff 3d 3a 62 39 be f9 79 af be 33 44 c8 3d
       0.12488232 -0.18103877 -0.34272745 0.09778633
000340 41 a1 65 3e ef 27 70 be df 8b 32 3e aa 33 6b 3e
       0.22424795 -0.23452733 0.17436169 0.22968927
000350 c3 1e 81 be 14 db 5e 3e 5c 02 b4 3d 07 df b3 3e
       -0.25218782 0.21763259 0.087895125 0.35131094
000360 30 dc f1 bd 4d 69 b8 bb bb 36 64 3e 01 7b 69 3e
       -0.118095756 -0.005627787 0.22286503 0.22800829
000370 fa ae 29 3c 78 c0 5d 3d 96 e4 12 3e 32 08 c5 be
       0.010356659 0.05413863 0.14345011 -0.38482815
000380 a8 45 8a bd 23 a4 be 3e 1b 20 17 3e ad ea 5d be
       -0.06751567 0.372346 0.14758341 -0.21671553
000390 e3 4c 93 be 73 45 b1 3e a5 cf 99 3d c4 7f df bd
       -0.28769597 0.34623298 0.07510308 -0.10913041
0003a0 7e b8 a9 3e c7 c5 8b 3e ea a0 e8 be 83 f6 90 3e
       0.3314857 0.2729933 -0.45435268 0.28313074
0003b0 48 b1 cc 3d 5c 70 b7 3d 80 77 94 be 52 55 9d be
       0.09994751 0.08956978 -0.2899742 -0.30729157
0003c0 9b 1d 63 bd 0e 8f d0 bd b1 8a c0 3e d5 2d a3 3d
       -0.055448156 -0.101835355 0.37605813 0.07967726
0003d0 5b 46 43 3e 10 6e 16 3e 18 bd a1 be 10 39 a7 be
       0.19069807 0.14690423 -0.3158958 -0.32660723
0003e0 85 91 fe bd 0a 74 8a 3d 84 57 a9 3e 9c 93 73 3e
       -0.124300994 0.06760414 0.33074582 0.23786777
0003f0 69 4d b0 be c8 4a a2 be 21 39 83 3d 53 3d f3 bd
       -0.3443406 -0.3169768 0.06407381 -0.11876931

BottleN_S.weight f4 [32, 512, 1]
000000 49 e5 0c 3d ed c4 87 3d 83 26 dc 3b 76 4a 91 3c
       0.03439835 0.066293575 0.006718458 0.017735701
000010 33 32 ea bc d7 be a4 3d b2 07 0d 3d 3b 0e 9e 3c
       -0.02858839 0.08044212 0.034431167 0.019293895
000020 e1 8d ee bc 08 70 b1 bc 04 7f 9d bd 10 3f 26 3c
       -0.029120388 -0.021659866 -0.07690242 0.010146871
000030 19 64 57 bd 57 c7 84 bd 5a 68 19 bb 0e f9 82 3c
       -0.052585695 -0.064833336 -0.0023408146 0.0159879
000040 6b 7b 0f bd 0e 08 15 bd 6b 7a a1 bc 5e 8a 00 bd
       -0.03502981 -0.036384635 -0.019711694 -0.031381957
000050 99 8c 1f bd c1 18 a6 3c 2d 13 3f bc 63 af 8d 3c
       -0.038952444 0.020275475 -0.011662287 0.017295545
000060 e9 70 b0 3c 53 d0 35 3c 9c fd 21 3d c7 24 3a 3d
       0.021538215 0.011097032 0.0395485 0.04544523
000070 14 94 24 3d 75 c3 89 bd 08 63 ac bc 2c 0a 44 3d
       0.04018028 -0.067267336 -0.021043316 0.047861263
000080 74 2e 1b 3d 7c 07 47 bd 5c ab 86 bc 49 12 41 bd
       0.037886098 -0.048591122 -0.016439132 -0.04713658
000090 9e 1a 2c bd ee 14 be 3c aa 19 99 3c e8 7f 21 ba
       -0.04201757 0.02320334 0.018688995 -0.0006160722
0000a0 d8 52 fe 3c 58 d5 e3 ba 55 31 ee bc 63 cf 93 bc
       0.031045362 -0.0017382307 -0.029076258 -0.018043226
0000b0 60 dd 90 3d 1a 35 b8 bb 5a 4a 3c 3c c1 8c b4 3b
       0.07073474 -0.0056215646 0.011492336 0.0055099432
0000c0 7e f4 16 be 9d 20 a8 3c 0b 51 73 bd 98 bd 32 bc
       -0.14741704 0.020523364 -0.05940346 -0.0109094605
0000d0 81 af 47 3d eb ec 2b 3d d6 84 4b 3c bf 72 5c 3d
       0.048751358 0.04197399 0.012421807 0.053820368
0000e0 12 c8 57 3c 55 93 66 3d db f7 ab bd 0b 79 4d 3c
       0.013170259 0.05629285 -0.08396884 0.012541066
0000f0 ab c7 cd bc 0c 76 ad ba 8c 2a 92 3d 38 7e 2e 3d
       -0.025119623 -0.0013234033 0.071370214 0.04260084
000100 0e c5 9f bc 0f b0 05 bb eb c8 dc bc 3d fb ce 3c
       -0.019503143 -0.0020399129 -0.026951274 0.025266284
000110 31 8a 67 bc d5 8e 87 3c 2e 49 70 3b 4f 39 76 bd
       -0.0141320685 0.0165476 0.0036664712 -0.060113247
000120 5a 2d 8b bd 33 af 23 3d 77 e2 db 3c 4c 43 3e 3d
       -0.067957595 0.039962005 0.026841385 0.046450898
000130 48 68 60 3d 84 75 44 bd c1 b7 75 bd 5a 5a 62 bd
       0.05478695 -0.047963634 -0.059989695 -0.055261947
000140 01 77 ab bd 65 f0 af 3b 6d 85 01 bc e5 ed f7 bc
       -0.083723076 0.0053692334 -0.007905346 -0.030264804
000150 8a 2e cf bb aa 24 a1 3c bd e7 37 3d c2 cf f8 3b
       -0.0063226866 0.019670803 0.044898737 0.007593126
000160 34 0e e3 bc 88 10 07 bc b4 bf b0 3d 08 86 c0 3c
       -0.027716734 -0.008243687 0.086303145 0.023501411
000170 17 d1 09 3d 0b bd 00 bd c0 b3 4e 3d d4 f0 db 3d
       0.03364667 -0.031430285 0.05046439 0.10739294
000180 da f6 66 3c 57 53 20 bd 17 09 7b bd 02 91 e9 ba
       0.01409694 -0.03914198 -0.061287966 -0.0017819705
000190 c9 97 e9 bc a0 6c 7b 3d 12 de 23 3d 9c eb 14 bc
       -0.02851476 0.06138289 0.040006705 -0.009089377
0001a0 4c 29 59 bd 25 3d 61 bc 8d 52 02 bd 1b 58 19 3d
       -0.0530179 -0.013747488 -0.031817008 0.03743754
0001b0 64 c9 a5 bb 44 af 8f bd f4 2d c4 ba d0 8c bd 3c
       -0.005059408 -0.07015851 -0.0014967308 0.023138434
0001c0 0e e9 64 3c cc 97 9f bd b8 94 3d bd 98 e2 9c 3c
       0.01397158 -0.07792625 -0.046284407 0.019151017
0001d0 23 76 25 3d 23 0b 20 bc 37 b6 91 3d 9e 14 b8 bc
       0.040395867 -0.00976828 0.07114833 -0.022470769
0001e0 f4 a4 6d 3d 6d ff dc ba f0 cf 08 3c 7a 16 b8 3c
       0.05801864 -0.0016860791 0.008350357 0.022471655
0001f0 93 86 ad bc b3 08 10 3d e8 a2 23 3d 0a 94 b6 bd
       -0.021182334 0.035164546 0.03995028 -0.08914955
000200 ba de af 3c 51 3e 60 bc 51 1f 79 3c a7 68 4f bc
       0.021468509 -0.013686732 0.01520522 -0.012659228
000210 1c dc 8a bc 45 fb bc 3b 9a b7 7a 3d 60 15 0e 3c
       -0.01695066 0.0057672583 0.061210252 0.008672088
000220 4e cf c6 bd c8 a6 f1 bc bd 04 0b bd 44 03 02 3c
       -0.09707509 -0.029498473 -0.033940066 0.007935349
000230 e7 c0 05 3d d6 4d 4c bd de 65 a8 bc dc b1 3a bd
       0.03265467 -0.049878918 -0.020556387 -0.045579776
000240 64 5c f1 3a 7f 15 d1 bb 2a 44 08 bd 01 39 40 3d
       0.0018414375 -0.0063807364 -0.03326813 0.046929363
000250 d8 33 4e 3c 8e 94 d2 3b 79 e0 3e bc 53 6e 2d 3d
       0.012585603 0.0064264005 -0.011650198 0.04234154
000260 7f 99 7b 3c 30 29 a0 3c 1d 80 0f bd f8 39 39 bc
       0.015356421 0.01955089 -0.035034288 -0.011305325
000270 33 ad df 3b f4 83 04 bd 6e 62 75 bd cb fc ab bd
       0.006826067 -0.032352403 -0.059908323 -0.08397826
000280 12 a0 7d bc 60 c2 07 bd d6 99 c8 3c 31 ef 23 bd
       -0.015480058 -0.033144355 0.024487417 -0.040023033
000290 c8 45 d5 bc c0 73 54 3c 22 56 7b 3d ae 66 2e 3c
       -0.02603425 0.01296705 0.06136144 0.010644598
0002a0 d4 8a 4d 3d 78 e3 29 bd 26 5c d4 bb 00 36 19 3d
       0.050181225 -0.041476697 -0.0064807115 0.037405014
0002b0 f6 33 15 bd dc df 77 bd 9c b2 e9 bc ee f9 2a bd
       -0.036426507 -0.060516223 -0.02852755 -0.041742258
0002c0 f1 ce cd bc 60 54 db 3c b0 91 b7 bb 9e 62 e8 bb
       -0.025123091 0.026773632 -0.005602084 -0.007091834
0002d0 f7 8c 7d 3d f9 84 08 bd 8e d1 78 bc da 89 a2 3d
       0.061902013 -0.033329938 -0.0151866805 0.07936449
0002e0 3c 35 86 3c 33 cd 25 bc c6 1c 3b bc c9 59 09 3d
       0.016382806 -0.010119724 -0.011420434 0.03353289
0002f0 de 7f 31 3b 95 9d 07 bb 12 31 6b bc 37 36 85 3d
       0.0027084271 -0.0020693291 -0.014354961 0.06504481
000300 25 1c 95 3d fe 25 e0 3c 67 08 e0 3c 9f 32 ba bc
       0.07280759 0.027361866 0.027347757 -0.022729216
000310 75 45 19 3d 83 07 31 3d db d9 aa bd c6 d7 63 3d
       0.037419755 0.043220054 -0.08342334 0.0556257
000320 c1 f6 02 3c 8e ee 9a bc 80 7f 40 3d 4e 7e 3e 3d
       0.007993401 -0.01891258 0.046996593 0.046507172
000330 d8 31 33 3c 02 e1 00 3d 1d dd bc 3c 96 4b 33 bd
       0.010937177 0.031464584 0.023054654 -0.043773256
000340 49 94 de 3b 51 d9 22 3d b1 0e c0 3c 0a d6 2e 3d
       0.0067925793 0.03975803 0.023444505 0.042684592
000350 4a 84 87 3c 69 14 a2 bc 99 ed 72 bc 71 b5 c4 bb
       0.016542573 -0.019785123 -0.0148271555 -0.006003075
000360 d0 26 54 bc 65 b7 05 bb 25 bb fa 3b 73 ec 27 3b
       -0.012948707 -0.00204035 0.007651704 0.0025623112
000370 eb e4 f3 bc 5b 41 ab 3d 1d 4a 6a bc dc 08 26 bc
       -0.029772243 0.08362075 -0.014299897 -0.010133948
000380 8c c5 05 bb e7 a7 d6 ba 91 f7 96 bd 83 99 7e bd
       -0.0020411937 -0.0016376943 -0.07371438 -0.06215812
000390 ec dc fd 3c c7 d4 80 3d a7 71 72 bc 84 28 5f bb
       0.030989133 0.06290584 -0.014797605 -0.0034051249
0003a0 fc 04 be 3c 9a 82 de 3c 7c 7a e8 bc 0b 8a 62 3d
       0.023195736 0.027161885 -0.028378718 0.05530743
0003b0 0c 83 18 bd 1d 15 ab 3d 47 80 29 3d c8 87 97 bc
       -0.03723435 0.083536364 0.0413821 -0.018497363
0003c0 5e e2 58 bd 23 52 e7 bb ff 0f d1 bb 36 cc 49 3d
       -0.052950256 -0.007059352 -0.0063800807 0.049267016
0003d0 11 0c 46 bc 91 19 89 3b 04 83 b0 bc fc 60 ff 3c
       -0.012087838 0.004183956 -0.021546848 0.031174175
0003e0 71 46 24 3c be 9a 9c bd 61 64 b4 3c 3d 08 a1 bc
       0.01002656 -0.07646702 0.02202052 -0.019657249
0003f0 1a d0 49 bd 6c 0c a0 39 6e de b2 3d 03 bb 5a 3c
       -0.049270727 0.00030526833 0.08733831 0.013350251

BottleN_S.bias f4 [32]
000000 f5 ac 05 3d 79 e5 8d bc ce 31 06 bd b5 67 73 3d
       0.032635648 -0.017321335 -0.03276234 0.059425075
000010 28 6b 15 bd 7b 15 d2 bc d9 e5 bf bc c9 b8 52 3c
       -0.036479145 -0.025645008 -0.02342503 0.012861439
000020 42 f4 88 bc 9c d9 03 3d 69 fd c0 bc 08 13 f0 3c
       -0.016718034 0.03218995 -0.023558335 0.02930595
000030 68 c7 75 bc 8d f1 99 3b 85 aa f6 3c 57 1c 29 bd
       -0.015001155 0.0046979846 0.030110607 -0.041286793
000040 02 e4 3c bd da 3a 37 bd 6d a8 b3 3c 67 cb d3 bc
       -0.046115883 -0.04473386 0.021930898 -0.025853826
000050 7e 20 85 bb 79 e7 5c 3d 9c 03 7a 3d b9 63 09 bd
       -0.0040627113 0.053931687 0.0610386 -0.03354237
000060 6e f3 7d bb 95 e3 8d 3c a9 80 04 bd df ef 64 bc
       -0.0038749832 0.017320434 -0.032349262 -0.013973205
000070 6f 75 ba 3c a5 ce e4 3b d3 41 32 3c ca a3 88 bc
       0.022761075 0.0069826418 0.0108799515 -0.016679663

separation.0.0.conv1x1.weight f4 [128, 32, 1]
000000 a4 28 c5 bd 13 a9 f7 bd 22 09 c6 3d 69 54 43 3e
       -0.09626892 -0.12092795 0.09669711 0.19075169
000010 2f 35 08 bd 5f f1 33 be b5 89 23 3e 89 d1 03 3a
       -0.033253845 -0.17572545 0.159705 0.00050284766
000020 ab a8 f1 bd 3b 19 b8 3d fd 5b 88 3d 96 83 7e 3d
       -0.11799749 0.08989187 0.0665817 0.06213721
000030 46 5b f4 3d db fe 84 bd fc 1c a3 bd 42 75 01 be
       0.119314715 -0.06493922 -0.07964513 -0.12642387
000040 6b 39 d7 bd ca 0e 9f bc 9b d9 0a be bb df e6 3d
       -0.105089985 -0.019416232 -0.13559572 0.11273142
000050 d8 9f b5 bd 57 78 c7 3d 65 db bc 3b a0 98 ff bc
       -0.088683784 0.0973975 0.0057634586 -0.031200707
000060 05 4d af 3d 4a 2f 16 be 7b ee ae 3c c4 d8 a8 3d
       0.08559612 -0.14666477 0.02135395 0.0824447
000070 1a 62 e1 bc d7 00 a7 3d cf 55 bb 3d c1 1f c9 bd
       -0.027512599 0.08154457 0.09147226 -0.0982051
000080 c3 84 3f bd c3 7e f8 3d c0 dd 35 bd 60 87 33 be
       -0.04675747 0.12133553 -0.04440093 -0.1753211
000090 0f dc ed bd 02 f3 f8 3d 9d 52 89 be 4b 47 f4 3d
       -0.116142385 0.12155725 -0.2682084 0.119276606
0000a0 32 cf 04 be 3e 48 81 3e b1 b0 4d be 7c a2 78 3d
       -0.12969664 0.2525043 -0.20086934 0.060701832
0000b0 94 43 3d 3e 9d 09 1b 3e c5 a6 76 3d 77 77 a1 3e
       0.1848281 0.15140386 0.060217638 0.31536457
0000c0 30 69 7c be f6 c7 b2 bd 5c 6e 20 3e bb a2 af bd
       -0.24649501 -0.08729546 0.15667099 -0.0857596
0000d0 84 16 c8 bc db 92 c2 bd 8e 06 b1 bd 05 71 1b bd
       -0.024424799 -0.09500667 -0.08643828 -0.03794958
0000e0 fa 2f 8a bd 42 6f 07 be 5b c1 bc 3d ed e2 b1 3d
       -0.06747432 -0.13226035 0.09216567 0.08685861
0000f0 82 20 b8 3d 15 79 06 3e d1 f2 e3 bd 02 a2 cf 3d
       0.089905754 0.13132127 -0.11130298 0.101383224
000100 87 69 1e be 09 16 f5 bd cc 21 03 3e ac 2d 19 3e
       -0.15469943 -0.119670935 0.12805861 0.14958829
000110 25 88 ee bc e9 fc 9b bd 0d 1b a2 bd e0 b4 3e 3d
       -0.029117653 -0.07616598 -0.07915316 0.046559215
000120 3e 78 2a 3e b0 79 d9 bd b2 a6 11 be 97 53 bc bd
       0.16647431 -0.10618913 -0.14223745 -0.09195631
000130 f1 71 b7 3d 90 6d 6e 3c c6 c0 6a bd 04 7f 24 3c
       0.089572795 0.014552489 -0.05731275 0.0100400485
000140 6b 12 34 3d 89 19 ed 3c de 06 aa 3d 3b f2 28 3e
       0.043962877 0.02894284 0.08302091 0.16498654
000150 77 20 35 3d ad 7d aa bd a2 94 71 3d d3 76 f4 3b
       0.044220414 -0.08324752 0.058979638 0.007460454
000160 fc 69 2e be 71 f5 86 be 74 1b a1 3d 5f f5 9b bd
       -0.17032617 -0.26359132 0.078665644 -0.0761516
000170 92 af 90 3e 86 f0 b0 bd 4e a1 54 be dd f7 a5 3d
       0.2825895 -0.08639626 -0.20764658 0.08103917
000180 a3 57 4b 3e ad 92 21 3e 8c 19 97 be ac 19 03 bd
       0.1985765 0.15778609 -0.29511678 -0.032006904
000190 eb c7 8a be ef 0a fe bc 04 d8 72 3b 8e c5 41 bb
       -0.2710565 -0.031011073 0.0037055025 -0.0029567215
0001a0 6c c1 b1 bd 23 dd fb bc 5d 8b 51 be 59 61 5c 3d
       -0.086794704 -0.030745095 -0.20463319 0.053803775
0001b0 8d 4c 97 bb 7d 0b c4 3e 96 e6 f6 3d 0d 70 d8 3d
       -0.00461728 0.38290015 0.120556995 0.10568247
0001c0 27 bd b1 3c 25 20 07 bc 5a 7d 82 3e 6e 85 e6 bc
       0.02169664 -0.00824741 0.2548626 -0.028139796
0001d0 fc be c2 bd f0 72 a2 bd e3 20 0c be 5e d6 d9 bd
       -0.09509084 -0.07932079 -0.1368442 -0.106365904
0001e0 a1 23 61 3e 46 d5 35 bc 3e 97 08 bd 0e 3b 28 3e
       0.21986248 -0.011098212 -0.03334736 0.16428778
0001f0 a4 47 f7 ba 27 4d d3 bc a4 d6 03 3e 97 f9 b3 3d
       -0.0018865955 -0.025793625 0.12874848 0.0878784
000200 3e 8f 89 3d 2e 9e 54 bd 72 0f 7e be 86 6f 31 bd
       0.067167744 -0.051908664 -0.2481058 -0.043319248
000210 47 4e 69 be c7 da 6f bb 7a 77 0c be a3 9b 7d 3d
       -0.22783767 -0.0036598907 -0.13717452 0.061916005
000220 8a 25 5e 3c d9 1b 63 3d a4 fc 53 bd 2f 13 a0 bd
       0.013558755 0.05544648 -0.05175461 -0.07816159
000230 bf 00 b8 3d ea 3a 4b 3e b5 57 d3 3d b4 0e d7 3d
       0.08984517 0.19846693 0.10319463 0.10500851
000240 ed 65 76 3d bc 14 ae bd 77 5c 05 3c 61 20 7b 3e
       0.060155798 -0.085000485 0.008139721 0.2452407
000250 d4 43 8e bd 02 06 1f be 97 f8 32 3d a0 e8 9b bd
       -0.06946531 -0.15529636 0.043694105 -0.07612729
000260 52 66 1d 3e 6e 24 6f be 2f 4c db 3c b0 a2 a3 3e
       0.15371063 -0.2335374 0.026769726 0.31960058
000270 7a 6f ff bc 1f b4 ad 3e 7e d1 09 bb 7e 15 a3 3d
       -0.031181086 0.33926484 -0.0021029408 0.07963084
000280 7b 2f af bd 9a 46 a0 3d 87 8a eb bd 75 64 5f bd
       -0.08553978 0.07825966 -0.11501031 -0.054539163
000290 67 a1 f6 bd 40 c0 95 3c 7c 2a 73 be 11 ce 49 3d
       -0.12042504 0.018280149 -0.23746675 0.049268786
0002a0 f8 a1 a0 bd 8e 5d d8 3d fb 79 4b bc 0e d0 bc bc
       -0.07843393 0.10564719 -0.012419219 -0.023048427
0002b0 ab 5d 03 3e 11 8e de bd ea d5 02 3e 1d 9a 55 3e
       0.128287 -0.10866941 0.12776914 0.20859571
0002c0 65 b8 6e be 00 74 e8 bd 8b c6 9b bd 2e 1c 33 3e
       -0.23312528 -0.1135025 -0.076062284 0.17491218
0002d0 d9 d7 33 bc f2 cb 60 be 49 cc 93 3d 1f 4b 6e 3e
       -0.010976755 -0.21952799 0.07216699 0.23270844
0002e0 3d aa de bd 0f 01 f5 bd 8b c9 0d 3d 08 8e 27 bd
       -0.10872314 -0.119630925 0.034616034 -0.040906936
0002f0 d9 7b 6b 3d 02 d2 32 be de 18 36 bd 9e 36 b5 3d
       0.057491157 -0.17462924 -0.04445731 0.08848308
000300 c2 c7 29 bd da 75 9a 3d 81 c9 a8 3d 8d 86 46 be
       -0.04145027 0.0754201 0.08241559 -0.19387265
000310 9a 98 e6 3c ba 6f 92 3d b8 85 cb 3b 15 89 dd bd
       0.028148938 0.071502164 0.006211009 -0.10817162
000320 9c 3d 85 bc 66 45 47 3c cf 3a f2 bd dd 56 73 3e
       -0.01626473 0.012162542 -0.11827623 0.23763604
000330 46 d4 5e be df 4e fd bd ee 89 2c 3d fe 2f d5 bd
       -0.21760663 -0.12368559 0.042123728 -0.104095444
000340 4b d6 00 3e d3 77 df bd f3 26 40 3e 58 df 02 3e
       0.12581746 -0.109115265 0.18764858 0.12780511
000350 e2 ff 10 be eb d6 f2 bc 16 f4 b4 be b8 8f e2 3d
       -0.14160112 -0.029643496 -0.35342473 0.110625684
000360 00 46 81 3d f0 81 5d be 13 e3 fe bd 7f df 04 3d
       0.063121796 -0.21631598 -0.12445655 0.032439705
000370 78 30 09 be fd 08 26 3d fd fd 38 be d2 84 05 bd
       -0.13397396 0.040535916 -0.18065639 -0.03259737
000380 67 d5 dc bc 21 5e 18 3c 5e b5 25 bd 3b 90 5d bb
       -0.026957227 0.009299786 -0.04045617 -0.0033807892
000390 8e e1 84 3d b3 14 08 3e f4 6c df 3c 6c 84 dc bd
       0.06488334 0.13289146 0.027273633 -0.10767445
0003a0 f4 14 29 3d 6b ee a8 bd 97 36 98 bd 1d c3 b2 bd
       0.041279748 -0.082485996 -0.07432287 -0.08728621
0003b0 7f 0a d2 3d 3d 11 1d be 3c 1f 1e 3d 7d 20 4d 3d
       0.10255908 -0.15338607 0.038604006 0.05007981
0003c0 37 cd ff 3d 23 c2 7a be e9 cb 80 be 25 89 98 3d
       0.124903135 -0.2448812 -0.2515557 0.07448033
0003d0 c3 db 6d 3d d2 71 1e 3e 22 90 cc 3c 0d 16 e3 3d
       0.05807091 0.15473107 0.024971072 0.1108819
0003e0 38 cd f8 bd 2a 12 11 3e ed 20 0d bd 7e af 08 bd
       -0.12148517 0.14167085 -0.03445523 -0.033370487
0003f0 55 55 3e 3e 28 5d 6e 3d e9 c9 c8 bd 4a e1 f0 bc
       0.18587239 0.05819431 -0.09804136 -0.029404301

separation.0.0.conv1x1.bias f4 [128]
000000 a3 09 7b bd 9b 4e 07 be 46 7a c1 3d ab 7e 56 be
       -0.061288487 -0.1321358 0.0944715 -0.20946757
000010 34 9a 89 be 5b 2c 91 3d f2 89 0c 3e b2 26 60 3e
       -0.2687546 0.07088538 0.13724497 0.21889761
000020 14 67 6b bc 32 d8 4c bd a1 53 d8 39 f3 ac cb 3d
       -0.014367837 -0.050010867 0.0004126104 0.09945097
000030 60 6d 16 be 52 ec c7 bc f5 c9 cf 3d 08 a6 95 3c
       -0.14690161 -0.024404678 0.10145942 0.018267646
000040 4f e3 e9 bd a6 3e f6 bb 4d e5 31 3e 48 e9 80 be
       -0.11420309 -0.0075147925 0.17372628 -0.2517798
000050 1b 3d 2e 3e b2 4f c6 bd 42 3f 3a 3d be 80 80 bc
       0.17015497 -0.096831694 0.045470484 -0.015686389
000060 93 68 ca 3d 01 8e 5a bd f1 4a c6 3c 30 5d b9 3d
       0.09883227 -0.05335808 0.024205657 0.09050977
000070 b0 8c 32 bc e6 14 ec 3d 99 a4 ed bc 24 b3 d7 bd
       -0.0108978 0.115274236 -0.02900915 -0.10532215
000080 2c 59 e2 bd 0c 38 41 3e 60 fe 1e bd b3 3c 0c 3d
       -0.110521644 0.18869036 -0.03881681 0.034237575
000090 8e 1a 89 bc e5 5d 22 3c 15 5a a3 3d 6b 5f 76 bb
       -0.016736295 0.0099100815 0.07976166 -0.0037593495
0000a0 83 a0 c3 3d 69 73 b8 bd 76 4c 1a be e6 2d a5 3d
       0.095520996 -0.09006388 -0.1506823 0.08065395
0000b0 3e f2 88 bd c3 3a d4 3d 29 96 40 3d f6 77 79 bd
       -0.06686829 0.103627704 0.047018204 -0.06090542
0000c0 26 17 e9 bd 94 d2 9b bd 65 a8 52 3d 9e 64 1e 3e
       -0.11381368 -0.07608524 0.051430125 0.1546807
0000d0 4c 91 85 3e 38 d8 31 be 5d c2 67 3d a8 43 5f 3e
       0.26087415 -0.17367637 0.056581844 0.21803153
0000e0 53 15 fc bc dc 10 79 3d 48 c2 4f be 26 11 95 be
       -0.030771887 0.060807094 -0.20288956 -0.29114646
0000f0 31 29 97 bc c4 c1 14 be ad a8 88 3d 7b 7d b3 3d
       -0.018452259 -0.1452704 0.06672797 0.08764168
000100 42 8f 81 3d 3a 07 f2 bd 09 31 18 3e ff ef 4a bd
       0.063261524 -0.118177846 0.14862455 -0.049545284
000110 03 a9 23 be b2 f9 0b bd 57 83 ad bc d7 0c 6b 3c
       -0.15982442 -0.034173675 -0.021180792 0.014346323
000120 f7 ce 74 3c 27 da e6 3c 4a 1d 1b be 8f 15 29 bd
       0.014941922 0.028180195 -0.15147892 -0.041280326
000130 06 31 b6 3d c8 d7 45 be a6 1e c9 bd 25 ed df bd
       0.08896069 -0.19320595 -0.09820299 -0.109339036
000140 1f 1b f5 3c 17 39 c2 bd 11 0e 9a be bf 35 07 bc
       0.029920159 -0.09483545 -0.30088857 -0.00825256
000150 65 c2 db 3b ce df ed 3c 53 af 09 3c 05 38 fd 3d
       0.0067065232 0.029037382 0.008403617 0.123642005
000160 81 82 f4 3d 2a b5 e4 bc 8e 3a 5d 3d 6a 04 db bd
       0.11938954 -0.027918417 0.05401092 -0.10694201
000170 a7 dc b4 3d e9 77 3e be ed 8e 80 bc cb 3c e1 bd
       0.088311486 -0.1860043 -0.015693152 -0.109979235
000180 77 24 ba 3c 11 92 7e be 59 ce a9 3d 5b ca 85 3e
       0.022722466 -0.24860407 0.08291311 0.26130947
000190 9f 82 90 be 1f 42 a8 bd 5f 7c 66 3d 57 be 28 be
       -0.28224656 -0.082157366 0.056270953 -0.16478859
0001a0 8e d2 c7 3a 6a 0b e6 3c a6 69 51 be 5b 5b 6f 3d
       0.0015245245 0.028081615 -0.20450458 0.058436733
0001b0 24 69 c6 3c 70 bd 06 be ae d7 4e 3e 78 e1 a7 3d
       0.024220057 -0.13158202 0.20199463 0.081973016
0001c0 ee cb 29 3e d7 69 51 3d 05 e3 32 3e 52 10 d4 bd
       0.16581699 0.051126327 0.17469414 -0.10354675
0001d0 2e e0 47 3e 64 18 9f 3e f0 32 88 bc 87 f4 dc bd
       0.19519112 0.31073296 -0.016625851 -0.107888274
0001e0 b3 21 11 3e e5 44 8d bd 36 37 c1 be 5b d7 91 bd
       0.14173011 -0.06897906 -0.37737435 -0.07121154
0001f0 d7 89 7d 3d 88 1d f5 bd 07 a5 59 be 58 9c bf 3d
       0.061899032 -0.11968523 -0.21254359 0.09355992

separation.0.0.norm_1.weight f4 [128, 1]
000000 e7 b1 6d 3f 09 01 8f 3f cf 9c 77 3f e1 4b 8d 3f
       0.9284958 1.1172191 0.96723646 1.1038781
000010 d8 a8 9f 3f fd d4 87 3f 8e 21 88 3f ce ec 7b 3f
       1.2473402 1.0611874 1.063524 0.9840821
000020 b4 83 8a 3f 9e 9c 8b 3f 95 76 81 3f 06 90 8a 3f
       1.0821443 1.0907171 1.0114313 1.0825202
000030 9d 10 8e 3f a7 cf 91 3f 0c c2 8f 3f ca 25 81 3f
       1.109882 1.1391495 1.1231093 1.0089657
000040 44 d2 85 3f 5e fc 85 3f 14 3a 7c 3f 70 a1 98 3f
       1.0454793 1.0467641 0.9852612 1.1924267
000050 8f 00 8a 3f aa bd 84 3f 8e c8 79 3f 69 a4 81 3f
       1.078142 1.0370381 0.9757165 1.0128299
000060 6e 10 76 3f a5 1e 94 3f d7 06 94 3f de f5 8a 3f
       0.9611882 1.1571852 1.1564587 1.0856283
000070 77 35 95 3f a4 f2 8a 3f bc 1f 90 3f fa 7c 96 3f
       1.1656941 1.0855298 1.1259685 1.175689
000080 0a 9d 7b 3f 98 c0 87 3f 95 0f 9a 3f de 4e 8d 3f
       0.982865 1.060565 1.2036005 1.1039693
000090 cc 6e 83 3f fa 72 72 3f e8 74 7a 3f ed c6 94 3f
       1.0268188 0.9470669 0.97834635 1.1623207
0000a0 55 92 84 3f 3f ff 7f 3f 71 8a 82 3f d2 8a 8c 3f
       1.0357157 0.9999885 1.0198499 1.0979865
0000b0 2a f8 8e 3f dc 70 8d 3f 2f 7b 92 3f 20 9f 81 3f
       1.1169484 1.1050067 1.1443843 1.0126686
0000c0 fc 96 84 3f 3f de 84 3f 22 11 8f 3f 14 90 73 3f
       1.0358577 1.0380324 1.1177104 0.9514172
0000d0 b1 f4 8a 3f b0 51 8b 3f ae bb 7a 3f 89 84 77 3f
       1.0855924 1.0884304 0.97942626 0.9668661
0000e0 fd cb 84 3f ac d8 91 3f 46 7e 74 3f ec 69 7d 3f
       1.0374752 1.1394248 0.9550518 0.9898975
0000f0 19 bb 87 3f e4 55 7a 3f 96 08 79 3f a0 1c 81 3f
       1.0603973 0.9778731 0.97278726 1.0086861
000100 cf 27 88 3f 8a e5 90 3f 33 60 7f 3f f1 25 84 3f
       1.0637149 1.132005 0.99756163 1.0324079
000110 35 af 8a 3f 13 d2 80 3f ec bd 60 3f 28 ac 90 3f
       1.0834719 1.006411 0.877898 1.1302538
000120 4b 9d 8d 3f 85 50 94 3f c6 2c 76 3f ad b3 7e 3f
       1.1063627 1.1587073 0.9616207 0.99492913
000130 b9 74 80 3f a5 e6 8c 3f 8c 1e 81 3f b3 f5 8b 3f
       1.0035621 1.1007887 1.0087447 1.0934356
000140 85 88 80 3f 53 8b 79 3f 97 f4 8b 3f 6a 52 97 3f
       1.0041662 0.97478217 1.0934018 1.1822026
000150 e5 88 77 3f 9e 21 78 3f 56 01 8a 3f 76 47 87 3f
       0.9669326 0.96926296 1.0781658 1.0568683
000160 fc ac 6d 3f 25 4e 8e 3f a0 29 85 3f d6 63 82 3f
       0.9284208 1.1117598 1.0403328 1.0186718
000170 90 1a 71 3f 30 dc 81 3f e0 77 81 3f 0e e2 6e 3f
       0.94181156 1.0145321 1.0114708 0.9331368
000180 ed 19 83 3f a2 55 6b 3f 41 55 8b 3f 2a 74 84 3f
       1.0242287 0.9192754 1.0885392 1.034795
000190 95 3c 83 3f 41 71 67 3f 03 de 7f 3f c5 cf 6d 3f
       1.0252863 0.90407187 0.9994814 0.92895156
0001a0 14 21 68 3f 97 f6 7f 3f 2e 5f 70 3f dc af 7d 3f
       0.90675473 0.9998564 0.9389523 0.99096465
0001b0 21 51 6a 3f 79 ea 83 3f ef 63 8a 3f 59 f2 84 3f
       0.9153004 1.030593 1.0811747 1.0386459
0001c0 aa 39 88 3f 88 5f 82 3f 78 57 84 3f e4 5e 97 3f
       1.0642598 1.0185404 1.0339193 1.1825833
0001d0 b7 d1 85 3f 33 b9 b3 3f 5c 3d bb 3f 60 9a 67 3f
       1.0454625 1.4040893 1.46281 0.9046993
0001e0 aa 5a 77 3f 43 1f 67 3f 1a af 85 3f 55 88 87 3f
       0.9662272 0.90282077 1.0444062 1.058848
0001f0 1f 1d 80 3f d6 cd 8b 3f 51 c6 8b 3f f8 5f 8d 3f
       1.0008887 1.0922191 1.0919896 1.1044912
